…
2024-03-19 21:57:09,143 - root - INFO - Begin autoregressive inference
2024-03-19 21:57:09,718 - root - WARNING -  >> MODEL_summary: ============================================================================================================================================
Layer (type (var_name))                  Input Shape               Output Shape              Param #                   Trainable
============================================================================================================================================
AFNONet (AFNONet)                        [1, 20, 720, 1440]        [1, 20, 720, 1440]        12,443,136                True
PatchEmbed (patch_embed)               [1, 20, 720, 1440]        [1, 16200, 768]           --                        True
    Conv2d (proj)                     [1, 20, 720, 1440]        [1, 768, 90, 180]         983,808                   True
Dropout (pos_drop)                     [1, 16200, 768]           [1, 16200, 768]           --                        --
ModuleList (blocks)                    --                        --                        --                        True
    Block (0)                         [1, 90, 180, 768]         [1, 90, 180, 768]         --                        True
        LayerNorm (norm1)            [1, 90, 180, 768]         [1, 90, 180, 768]         1,536                     True
        AFNO2D (filter)              [1, 90, 180, 768]         [1, 90, 180, 768]         297,984                   True
        LayerNorm (norm2)            [1, 90, 180, 768]         [1, 90, 180, 768]         1,536                     True
        Mlp (mlp)                    [1, 90, 180, 768]         [1, 90, 180, 768]         --                        True
            Linear (fc1)            [1, 90, 180, 768]         [1, 90, 180, 3072]        2,362,368                 True
            GELU (act)              [1, 90, 180, 3072]        [1, 90, 180, 3072]        --                        --
            Dropout (drop)          [1, 90, 180, 3072]        [1, 90, 180, 3072]        --                        --
            Linear (fc2)            [1, 90, 180, 3072]        [1, 90, 180, 768]         2,360,064                 True
            Dropout (drop)          [1, 90, 180, 768]         [1, 90, 180, 768]         --                        --
        Identity (drop_path)         [1, 90, 180, 768]         [1, 90, 180, 768]         --                        --
    Block (1)                         [1, 90, 180, 768]         [1, 90, 180, 768]         --                        True
        LayerNorm (norm1)            [1, 90, 180, 768]         [1, 90, 180, 768]         1,536                     True
        AFNO2D (filter)              [1, 90, 180, 768]         [1, 90, 180, 768]         297,984                   True
        LayerNorm (norm2)            [1, 90, 180, 768]         [1, 90, 180, 768]         1,536                     True
        Mlp (mlp)                    [1, 90, 180, 768]         [1, 90, 180, 768]         --                        True
            Linear (fc1)            [1, 90, 180, 768]         [1, 90, 180, 3072]        2,362,368                 True
            GELU (act)              [1, 90, 180, 3072]        [1, 90, 180, 3072]        --                        --
            Dropout (drop)          [1, 90, 180, 3072]        [1, 90, 180, 3072]        --                        --
            Linear (fc2)            [1, 90, 180, 3072]        [1, 90, 180, 768]         2,360,064                 True
            Dropout (drop)          [1, 90, 180, 768]         [1, 90, 180, 768]         --                        --
        Identity (drop_path)         [1, 90, 180, 768]         [1, 90, 180, 768]         --                        --
    Block (2)                         [1, 90, 180, 768]         [1, 90, 180, 768]         --                        True
        LayerNorm (norm1)            [1, 90, 180, 768]         [1, 90, 180, 768]         1,536                     True
        AFNO2D (filter)              [1, 90, 180, 768]         [1, 90, 180, 768]         297,984                   True
        LayerNorm (norm2)            [1, 90, 180, 768]         [1, 90, 180, 768]         1,536                     True
        Mlp (mlp)                    [1, 90, 180, 768]         [1, 90, 180, 768]         --                        True
            Linear (fc1)            [1, 90, 180, 768]         [1, 90, 180, 3072]        2,362,368                 True
            GELU (act)              [1, 90, 180, 3072]        [1, 90, 180, 3072]        --                        --
            Dropout (drop)          [1, 90, 180, 3072]        [1, 90, 180, 3072]        --                        --
            Linear (fc2)            [1, 90, 180, 3072]        [1, 90, 180, 768]         2,360,064                 True
            Dropout (drop)          [1, 90, 180, 768]         [1, 90, 180, 768]         --                        --
        Identity (drop_path)         [1, 90, 180, 768]         [1, 90, 180, 768]         --                        --
    Block (3)                         [1, 90, 180, 768]         [1, 90, 180, 768]         --                        True
        LayerNorm (norm1)            [1, 90, 180, 768]         [1, 90, 180, 768]         1,536                     True
        AFNO2D (filter)              [1, 90, 180, 768]         [1, 90, 180, 768]         297,984                   True
        LayerNorm (norm2)            [1, 90, 180, 768]         [1, 90, 180, 768]         1,536                     True
        Mlp (mlp)                    [1, 90, 180, 768]         [1, 90, 180, 768]         --                        True
            Linear (fc1)            [1, 90, 180, 768]         [1, 90, 180, 3072]        2,362,368                 True
            GELU (act)              [1, 90, 180, 3072]        [1, 90, 180, 3072]        --                        --
            Dropout (drop)          [1, 90, 180, 3072]        [1, 90, 180, 3072]        --                        --
            Linear (fc2)            [1, 90, 180, 3072]        [1, 90, 180, 768]         2,360,064                 True
            Dropout (drop)          [1, 90, 180, 768]         [1, 90, 180, 768]         --                        --
        Identity (drop_path)         [1, 90, 180, 768]         [1, 90, 180, 768]         --                        --
    Block (4)                         [1, 90, 180, 768]         [1, 90, 180, 768]         --                        True
        LayerNorm (norm1)            [1, 90, 180, 768]         [1, 90, 180, 768]         1,536                     True
        AFNO2D (filter)              [1, 90, 180, 768]         [1, 90, 180, 768]         297,984                   True
        LayerNorm (norm2)            [1, 90, 180, 768]         [1, 90, 180, 768]         1,536                     True
        Mlp (mlp)                    [1, 90, 180, 768]         [1, 90, 180, 768]         --                        True
            Linear (fc1)            [1, 90, 180, 768]         [1, 90, 180, 3072]        2,362,368                 True
            GELU (act)              [1, 90, 180, 3072]        [1, 90, 180, 3072]        --                        --
            Dropout (drop)          [1, 90, 180, 3072]        [1, 90, 180, 3072]        --                        --
            Linear (fc2)            [1, 90, 180, 3072]        [1, 90, 180, 768]         2,360,064                 True
            Dropout (drop)          [1, 90, 180, 768]         [1, 90, 180, 768]         --                        --
        Identity (drop_path)         [1, 90, 180, 768]         [1, 90, 180, 768]         --                        --
    Block (5)                         [1, 90, 180, 768]         [1, 90, 180, 768]         --                        True
        LayerNorm (norm1)            [1, 90, 180, 768]         [1, 90, 180, 768]         1,536                     True
        AFNO2D (filter)              [1, 90, 180, 768]         [1, 90, 180, 768]         297,984                   True
        LayerNorm (norm2)            [1, 90, 180, 768]         [1, 90, 180, 768]         1,536                     True
        Mlp (mlp)                    [1, 90, 180, 768]         [1, 90, 180, 768]         --                        True
            Linear (fc1)            [1, 90, 180, 768]         [1, 90, 180, 3072]        2,362,368                 True
            GELU (act)              [1, 90, 180, 3072]        [1, 90, 180, 3072]        --                        --
            Dropout (drop)          [1, 90, 180, 3072]        [1, 90, 180, 3072]        --                        --
            Linear (fc2)            [1, 90, 180, 3072]        [1, 90, 180, 768]         2,360,064                 True
            Dropout (drop)          [1, 90, 180, 768]         [1, 90, 180, 768]         --                        --
        Identity (drop_path)         [1, 90, 180, 768]         [1, 90, 180, 768]         --                        --
    Block (6)                         [1, 90, 180, 768]         [1, 90, 180, 768]         --                        True
        LayerNorm (norm1)            [1, 90, 180, 768]         [1, 90, 180, 768]         1,536                     True
        AFNO2D (filter)              [1, 90, 180, 768]         [1, 90, 180, 768]         297,984                   True
        LayerNorm (norm2)            [1, 90, 180, 768]         [1, 90, 180, 768]         1,536                     True
        Mlp (mlp)                    [1, 90, 180, 768]         [1, 90, 180, 768]         --                        True
            Linear (fc1)            [1, 90, 180, 768]         [1, 90, 180, 3072]        2,362,368                 True
            GELU (act)              [1, 90, 180, 3072]        [1, 90, 180, 3072]        --                        --
            Dropout (drop)          [1, 90, 180, 3072]        [1, 90, 180, 3072]        --                        --
            Linear (fc2)            [1, 90, 180, 3072]        [1, 90, 180, 768]         2,360,064                 True
            Dropout (drop)          [1, 90, 180, 768]         [1, 90, 180, 768]         --                        --
        Identity (drop_path)         [1, 90, 180, 768]         [1, 90, 180, 768]         --                        --
    Block (7)                         [1, 90, 180, 768]         [1, 90, 180, 768]         --                        True
        LayerNorm (norm1)            [1, 90, 180, 768]         [1, 90, 180, 768]         1,536                     True
        AFNO2D (filter)              [1, 90, 180, 768]         [1, 90, 180, 768]         297,984                   True
        LayerNorm (norm2)            [1, 90, 180, 768]         [1, 90, 180, 768]         1,536                     True
        Mlp (mlp)                    [1, 90, 180, 768]         [1, 90, 180, 768]         --                        True
            Linear (fc1)            [1, 90, 180, 768]         [1, 90, 180, 3072]        2,362,368                 True
            GELU (act)              [1, 90, 180, 3072]        [1, 90, 180, 3072]        --                        --
            Dropout (drop)          [1, 90, 180, 3072]        [1, 90, 180, 3072]        --                        --
            Linear (fc2)            [1, 90, 180, 3072]        [1, 90, 180, 768]         2,360,064                 True
            Dropout (drop)          [1, 90, 180, 768]         [1, 90, 180, 768]         --                        --
        Identity (drop_path)         [1, 90, 180, 768]         [1, 90, 180, 768]         --                        --
    Block (8)                         [1, 90, 180, 768]         [1, 90, 180, 768]         --                        True
        LayerNorm (norm1)            [1, 90, 180, 768]         [1, 90, 180, 768]         1,536                     True
        AFNO2D (filter)              [1, 90, 180, 768]         [1, 90, 180, 768]         297,984                   True
        LayerNorm (norm2)            [1, 90, 180, 768]         [1, 90, 180, 768]         1,536                     True
        Mlp (mlp)                    [1, 90, 180, 768]         [1, 90, 180, 768]         --                        True
            Linear (fc1)            [1, 90, 180, 768]         [1, 90, 180, 3072]        2,362,368                 True
            GELU (act)              [1, 90, 180, 3072]        [1, 90, 180, 3072]        --                        --
            Dropout (drop)          [1, 90, 180, 3072]        [1, 90, 180, 3072]        --                        --
            Linear (fc2)            [1, 90, 180, 3072]        [1, 90, 180, 768]         2,360,064                 True
            Dropout (drop)          [1, 90, 180, 768]         [1, 90, 180, 768]         --                        --
        Identity (drop_path)         [1, 90, 180, 768]         [1, 90, 180, 768]         --                        --
    Block (9)                         [1, 90, 180, 768]         [1, 90, 180, 768]         --                        True
        LayerNorm (norm1)            [1, 90, 180, 768]         [1, 90, 180, 768]         1,536                     True
        AFNO2D (filter)              [1, 90, 180, 768]         [1, 90, 180, 768]         297,984                   True
        LayerNorm (norm2)            [1, 90, 180, 768]         [1, 90, 180, 768]         1,536                     True
        Mlp (mlp)                    [1, 90, 180, 768]         [1, 90, 180, 768]         --                        True
            Linear (fc1)            [1, 90, 180, 768]         [1, 90, 180, 3072]        2,362,368                 True
            GELU (act)              [1, 90, 180, 3072]        [1, 90, 180, 3072]        --                        --
            Dropout (drop)          [1, 90, 180, 3072]        [1, 90, 180, 3072]        --                        --
            Linear (fc2)            [1, 90, 180, 3072]        [1, 90, 180, 768]         2,360,064                 True
            Dropout (drop)          [1, 90, 180, 768]         [1, 90, 180, 768]         --                        --
        Identity (drop_path)         [1, 90, 180, 768]         [1, 90, 180, 768]         --                        --
    Block (10)                        [1, 90, 180, 768]         [1, 90, 180, 768]         --                        True
        LayerNorm (norm1)            [1, 90, 180, 768]         [1, 90, 180, 768]         1,536                     True
        AFNO2D (filter)              [1, 90, 180, 768]         [1, 90, 180, 768]         297,984                   True
        LayerNorm (norm2)            [1, 90, 180, 768]         [1, 90, 180, 768]         1,536                     True
        Mlp (mlp)                    [1, 90, 180, 768]         [1, 90, 180, 768]         --                        True
            Linear (fc1)            [1, 90, 180, 768]         [1, 90, 180, 3072]        2,362,368                 True
            GELU (act)              [1, 90, 180, 3072]        [1, 90, 180, 3072]        --                        --
            Dropout (drop)          [1, 90, 180, 3072]        [1, 90, 180, 3072]        --                        --
            Linear (fc2)            [1, 90, 180, 3072]        [1, 90, 180, 768]         2,360,064                 True
            Dropout (drop)          [1, 90, 180, 768]         [1, 90, 180, 768]         --                        --
        Identity (drop_path)         [1, 90, 180, 768]         [1, 90, 180, 768]         --                        --
    Block (11)                        [1, 90, 180, 768]         [1, 90, 180, 768]         --                        True
        LayerNorm (norm1)            [1, 90, 180, 768]         [1, 90, 180, 768]         1,536                     True
        AFNO2D (filter)              [1, 90, 180, 768]         [1, 90, 180, 768]         297,984                   True
        LayerNorm (norm2)            [1, 90, 180, 768]         [1, 90, 180, 768]         1,536                     True
        Mlp (mlp)                    [1, 90, 180, 768]         [1, 90, 180, 768]         --                        True
            Linear (fc1)            [1, 90, 180, 768]         [1, 90, 180, 3072]        2,362,368                 True
            GELU (act)              [1, 90, 180, 3072]        [1, 90, 180, 3072]        --                        --
            Dropout (drop)          [1, 90, 180, 3072]        [1, 90, 180, 3072]        --                        --
            Linear (fc2)            [1, 90, 180, 3072]        [1, 90, 180, 768]         2,360,064                 True
            Dropout (drop)          [1, 90, 180, 768]         [1, 90, 180, 768]         --                        --
        Identity (drop_path)         [1, 90, 180, 768]         [1, 90, 180, 768]         --                        --
Linear (head)                          [1, 90, 180, 768]         [1, 90, 180, 1280]        983,040                   True
============================================================================================================================================
Total params: 74,691,840
Trainable params: 74,691,840
Non-trainable params: 0
Total mult-adds (Units.GIGABYTES): 16.00
============================================================================================================================================
…
